*************************** Fold #: 1 ***************************
Model: "sequential_40"
_________________________________________________________________
Layer (type)                 Output Shape              Param #   
=================================================================
dense_440 (Dense)            (None, 30)                210       
_________________________________________________________________
dense_441 (Dense)            (None, 30)                930       
_________________________________________________________________
dense_442 (Dense)            (None, 30)                930       
_________________________________________________________________
dense_443 (Dense)            (None, 30)                930       
_________________________________________________________________
dense_444 (Dense)            (None, 30)                930       
_________________________________________________________________
dense_445 (Dense)            (None, 30)                930       
_________________________________________________________________
dense_446 (Dense)            (None, 30)                930       
_________________________________________________________________
dense_447 (Dense)            (None, 30)                930       
_________________________________________________________________
dense_448 (Dense)            (None, 30)                930       
_________________________________________________________________
dense_449 (Dense)            (None, 30)                930       
_________________________________________________________________
dense_450 (Dense)            (None, 1)                 31        
=================================================================
Total params: 8,611
Trainable params: 8,611
Non-trainable params: 0
_________________________________________________________________
Epoch 1/10000
4/4 - 0s - loss: 31.5184 - val_loss: 29.4765

Epoch 00001: val_loss improved from inf to 29.47650, saving model to ./results/dataset/trial_5/ckpt_1
Epoch 2/10000
4/4 - 0s - loss: 31.4754 - val_loss: 29.4330
…
