*************************** Fold #: 1 ***************************
Model: "sequential_50"
_________________________________________________________________
Layer (type)                 Output Shape              Param #   
=================================================================
dense_550 (Dense)            (None, 30)                960       
_________________________________________________________________
dense_551 (Dense)            (None, 30)                930       
_________________________________________________________________
dense_552 (Dense)            (None, 30)                930       
_________________________________________________________________
dense_553 (Dense)            (None, 30)                930       
_________________________________________________________________
dense_554 (Dense)            (None, 30)                930       
_________________________________________________________________
dense_555 (Dense)            (None, 30)                930       
_________________________________________________________________
dense_556 (Dense)            (None, 30)                930       
_________________________________________________________________
dense_557 (Dense)            (None, 30)                930       
_________________________________________________________________
dense_558 (Dense)            (None, 30)                930       
_________________________________________________________________
dense_559 (Dense)            (None, 30)                930       
_________________________________________________________________
dense_560 (Dense)            (None, 1)                 31        
=================================================================
Total params: 9,361
Trainable params: 9,361
Non-trainable params: 0
_________________________________________________________________
Epoch 1/10000
4/4 - 0s - loss: 547.6144 - val_loss: 363.5625

Epoch 00001: val_loss improved from inf to 363.56250, saving model to ./results//trial_6/ckpt_1
Epoch 2/10000
4/4 - 0s - loss: 547.4587 - val_loss: 363.4097
…
