*************************** Fold #: 1 ***************************
Model: "sequential_30"
_________________________________________________________________
Layer (type)                 Output Shape              Param #   
=================================================================
dense_330 (Dense)            (None, 30)                210       
_________________________________________________________________
dense_331 (Dense)            (None, 30)                930       
_________________________________________________________________
dense_332 (Dense)            (None, 30)                930       
_________________________________________________________________
dense_333 (Dense)            (None, 30)                930       
_________________________________________________________________
dense_334 (Dense)            (None, 30)                930       
_________________________________________________________________
dense_335 (Dense)            (None, 30)                930       
_________________________________________________________________
dense_336 (Dense)            (None, 30)                930       
_________________________________________________________________
dense_337 (Dense)            (None, 30)                930       
_________________________________________________________________
dense_338 (Dense)            (None, 30)                930       
_________________________________________________________________
dense_339 (Dense)            (None, 30)                930       
_________________________________________________________________
dense_340 (Dense)            (None, 1)                 31        
=================================================================
Total params: 8,611
Trainable params: 8,611
Non-trainable params: 0
_________________________________________________________________
Epoch 1/10000
4/4 - 0s - loss: 534.4738 - val_loss: 481.8567

Epoch 00001: val_loss improved from inf to 481.85672, saving model to ./results//trial_4/ckpt_1
Epoch 2/10000
4/4 - 0s - loss: 534.3323 - val_loss: 481.6957
…
