*************************** Fold #: 1 ***************************
Model: "sequential_30"
_________________________________________________________________
 Layer (type)                Output Shape              Param #   
=================================================================
 dense_330 (Dense)           (None, 30)                210       
                                                                 
 dense_331 (Dense)           (None, 30)                930       
                                                                 
 dense_332 (Dense)           (None, 30)                930       
                                                                 
 dense_333 (Dense)           (None, 30)                930       
                                                                 
 dense_334 (Dense)           (None, 30)                930       
                                                                 
 dense_335 (Dense)           (None, 30)                930       
                                                                 
 dense_336 (Dense)           (None, 30)                930       
                                                                 
 dense_337 (Dense)           (None, 30)                930       
                                                                 
 dense_338 (Dense)           (None, 30)                930       
                                                                 
 dense_339 (Dense)           (None, 30)                930       
                                                                 
 dense_340 (Dense)           (None, 1)                 31        
                                                                 
=================================================================
Total params: 8,611
Trainable params: 8,611
Non-trainable params: 0
_________________________________________________________________
Epoch 1/10000

Epoch 00001: val_loss improved from inf to 158.11234, saving model to ./results/trial_4/ckpt_1
12/12 - 2s - loss: 152.2715 - val_loss: 158.1123 - 2s/epoch - 178ms/step
…
