*************************** Fold #: 1 ***************************
Model: "sequential_30"
_________________________________________________________________
 Layer (type)                Output Shape              Param #   
=================================================================
 dense_330 (Dense)           (None, 30)                210       
                                                                 
 dense_331 (Dense)           (None, 30)                930       
                                                                 
 dense_332 (Dense)           (None, 30)                930       
                                                                 
 dense_333 (Dense)           (None, 30)                930       
                                                                 
 dense_334 (Dense)           (None, 30)                930       
                                                                 
 dense_335 (Dense)           (None, 30)                930       
                                                                 
 dense_336 (Dense)           (None, 30)                930       
                                                                 
 dense_337 (Dense)           (None, 30)                930       
                                                                 
 dense_338 (Dense)           (None, 30)                930       
                                                                 
 dense_339 (Dense)           (None, 30)                930       
                                                                 
 dense_340 (Dense)           (None, 1)                 31        
                                                                 
=================================================================
Total params: 8,611
Trainable params: 8,611
Non-trainable params: 0
_________________________________________________________________
Epoch 1/10000

Epoch 00001: val_loss improved from inf to 142.76134, saving model to ./results/trial_4/ckpt_1
8/8 - 2s - loss: 243.4754 - val_loss: 142.7613 - 2s/epoch - 230ms/step
…
