Before SMOTE
 Box Stats: [0. 1. 1. 3. 6.]
 Number of samples: 4000

After SMOTE
 Box Stats: [ 0.  1.  5.  9. 21.]
 Number of samples: 5800

*************************** Fold #: 1 ***************************
Model: "sequential"
_________________________________________________________________
Layer (type)                 Output Shape              Param #   
=================================================================
dense (Dense)                (None, 30)                240       
_________________________________________________________________
dense_1 (Dense)              (None, 30)                930       
_________________________________________________________________
dense_2 (Dense)              (None, 30)                930       
_________________________________________________________________
dense_3 (Dense)              (None, 30)                930       
_________________________________________________________________
dense_4 (Dense)              (None, 30)                930       
_________________________________________________________________
dense_5 (Dense)              (None, 30)                930       
_________________________________________________________________
dense_6 (Dense)              (None, 30)                930       
_________________________________________________________________
dense_7 (Dense)              (None, 30)                930       
_________________________________________________________________
dense_8 (Dense)              (None, 30)                930       
_________________________________________________________________
dense_9 (Dense)              (None, 30)                930       
_________________________________________________________________
dense_10 (Dense)             (None, 1)                 31        
=================================================================
Total params: 8,641
Trainable params: 8,641
Non-trainable params: 0
_________________________________________________________________
Epoch 1/10000
6/6 - 0s - loss: 114.1430 - val_loss: 125.9035

Epoch 00001: val_loss improved from inf to 125.90352, saving model to ./results//smote_1/ckpt_1
Epoch 2/10000
6/6 - 0s - loss: 113.9606 - val_loss: 125.6840
…
