Before SMOTE
 Box Stats: [0. 1. 1. 3. 6.]
 Number of samples: 4000

After SMOTE
 Box Stats: [ 0.          1.          4.71512024  8.         18.48648649]
 Number of samples: 5800

*************************** Fold #: 1 ***************************
Model: "sequential_50"
_________________________________________________________________
Layer (type)                 Output Shape              Param #   
=================================================================
dense_550 (Dense)            (None, 30)                960       
_________________________________________________________________
dense_551 (Dense)            (None, 30)                930       
_________________________________________________________________
dense_552 (Dense)            (None, 30)                930       
_________________________________________________________________
dense_553 (Dense)            (None, 30)                930       
_________________________________________________________________
dense_554 (Dense)            (None, 30)                930       
_________________________________________________________________
dense_555 (Dense)            (None, 30)                930       
_________________________________________________________________
dense_556 (Dense)            (None, 30)                930       
_________________________________________________________________
dense_557 (Dense)            (None, 30)                930       
_________________________________________________________________
dense_558 (Dense)            (None, 30)                930       
_________________________________________________________________
dense_559 (Dense)            (None, 30)                930       
_________________________________________________________________
dense_560 (Dense)            (None, 1)                 31        
=================================================================
Total params: 9,361
Trainable params: 9,361
Non-trainable params: 0
_________________________________________________________________
Epoch 1/10000
6/6 - 0s - loss: 108.5056 - val_loss: 97.0944

Epoch 00001: val_loss improved from inf to 97.09442, saving model to ./results//smote_6/ckpt_1
Epoch 2/10000
6/6 - 0s - loss: 108.3589 - val_loss: 96.9278
…
