Before SMOTE
 Box Stats: [0.723  0.9835 1.674  3.2925 6.75  ]
 Number of samples: 4000

After SMOTE
 Box Stats: [ 0.723       1.545       4.53682185  7.06408147 15.32128405]
 Number of samples: 5932

*************************** Fold #: 1 ***************************
Model: "sequential_10"
_________________________________________________________________
Layer (type)                 Output Shape              Param #   
=================================================================
dense_110 (Dense)            (None, 30)                270       
_________________________________________________________________
dense_111 (Dense)            (None, 30)                930       
_________________________________________________________________
dense_112 (Dense)            (None, 30)                930       
_________________________________________________________________
dense_113 (Dense)            (None, 30)                930       
_________________________________________________________________
dense_114 (Dense)            (None, 30)                930       
_________________________________________________________________
dense_115 (Dense)            (None, 30)                930       
_________________________________________________________________
dense_116 (Dense)            (None, 30)                930       
_________________________________________________________________
dense_117 (Dense)            (None, 30)                930       
_________________________________________________________________
dense_118 (Dense)            (None, 30)                930       
_________________________________________________________________
dense_119 (Dense)            (None, 30)                930       
_________________________________________________________________
dense_120 (Dense)            (None, 1)                 31        
=================================================================
Total params: 8,671
Trainable params: 8,671
Non-trainable params: 0
_________________________________________________________________
Epoch 1/10000
6/6 - 0s - loss: 82.1180 - val_loss: 84.8834

Epoch 00001: val_loss improved from inf to 84.88345, saving model to ./results/kde_dataset/smote_2/ckpt_1
Epoch 2/10000
6/6 - 0s - loss: 81.9925 - val_loss: 84.7412
…
