Before SMOTE
 Box Stats: [0.723  0.9835 1.674  3.2925 6.75  ]
 Number of samples: 4000

After SMOTE
 Box Stats: [ 0.723       1.579       4.5625      7.37174958 15.938     ]
 Number of samples: 5932

*************************** Fold #: 1 ***************************
Model: "sequential_20"
_________________________________________________________________
Layer (type)                 Output Shape              Param #   
=================================================================
dense_220 (Dense)            (None, 30)                150       
_________________________________________________________________
dense_221 (Dense)            (None, 30)                930       
_________________________________________________________________
dense_222 (Dense)            (None, 30)                930       
_________________________________________________________________
dense_223 (Dense)            (None, 30)                930       
_________________________________________________________________
dense_224 (Dense)            (None, 30)                930       
_________________________________________________________________
dense_225 (Dense)            (None, 30)                930       
_________________________________________________________________
dense_226 (Dense)            (None, 30)                930       
_________________________________________________________________
dense_227 (Dense)            (None, 30)                930       
_________________________________________________________________
dense_228 (Dense)            (None, 30)                930       
_________________________________________________________________
dense_229 (Dense)            (None, 30)                930       
_________________________________________________________________
dense_230 (Dense)            (None, 1)                 31        
=================================================================
Total params: 8,551
Trainable params: 8,551
Non-trainable params: 0
_________________________________________________________________
Epoch 1/10000
6/6 - 0s - loss: 85.8650 - val_loss: 92.5764

Epoch 00001: val_loss improved from inf to 92.57642, saving model to ./results/kde_dataset/smote_3/ckpt_1
Epoch 2/10000
6/6 - 0s - loss: 85.7133 - val_loss: 92.3953
…
