Before SMOTE
 Box Stats: [0.723  0.9835 1.674  3.2925 6.75  ]
 Number of samples: 4000

After SMOTE
 Box Stats: [ 0.723       1.559       4.54468778  7.30211707 15.902     ]
 Number of samples: 5932

*************************** Fold #: 1 ***************************
Model: "sequential_30"
_________________________________________________________________
Layer (type)                 Output Shape              Param #   
=================================================================
dense_330 (Dense)            (None, 30)                210       
_________________________________________________________________
dense_331 (Dense)            (None, 30)                930       
_________________________________________________________________
dense_332 (Dense)            (None, 30)                930       
_________________________________________________________________
dense_333 (Dense)            (None, 30)                930       
_________________________________________________________________
dense_334 (Dense)            (None, 30)                930       
_________________________________________________________________
dense_335 (Dense)            (None, 30)                930       
_________________________________________________________________
dense_336 (Dense)            (None, 30)                930       
_________________________________________________________________
dense_337 (Dense)            (None, 30)                930       
_________________________________________________________________
dense_338 (Dense)            (None, 30)                930       
_________________________________________________________________
dense_339 (Dense)            (None, 30)                930       
_________________________________________________________________
dense_340 (Dense)            (None, 1)                 31        
=================================================================
Total params: 8,611
Trainable params: 8,611
Non-trainable params: 0
_________________________________________________________________
Epoch 1/10000
6/6 - 0s - loss: 89.1032 - val_loss: 79.2202

Epoch 00001: val_loss improved from inf to 79.22016, saving model to ./results/kde_dataset/smote_4/ckpt_1
Epoch 2/10000
6/6 - 0s - loss: 88.9948 - val_loss: 79.1097
…
