*************************** Fold #: 1 ***************************
Model: "sequential"
_________________________________________________________________
 Layer (type)                Output Shape              Param #   
=================================================================
 dense (Dense)               (None, 30)                960       
                                                                 
 dense_1 (Dense)             (None, 30)                930       
                                                                 
 dense_2 (Dense)             (None, 30)                930       
                                                                 
 dense_3 (Dense)             (None, 30)                930       
                                                                 
 dense_4 (Dense)             (None, 30)                930       
                                                                 
 dense_5 (Dense)             (None, 30)                930       
                                                                 
 dense_6 (Dense)             (None, 30)                930       
                                                                 
 dense_7 (Dense)             (None, 30)                930       
                                                                 
 dense_8 (Dense)             (None, 30)                930       
                                                                 
 dense_9 (Dense)             (None, 30)                930       
                                                                 
 dense_10 (Dense)            (None, 1)                 31        
                                                                 
=================================================================
Total params: 9,361
Trainable params: 9,361
Non-trainable params: 0
_________________________________________________________________
Epoch 1/10000

Epoch 00001: val_loss improved from inf to 72.97534, saving model to ./results/trial_1/ckpt_1
12/12 - 2s - loss: 151.8772 - val_loss: 72.9753 - 2s/epoch - 182ms/step
…
