*************************** Fold #: 1 ***************************
Model: "sequential"
_________________________________________________________________
Layer (type)                 Output Shape              Param #   
=================================================================
<<<<<<< HEAD
 dense (Dense)               (None, 30)                810       
                                                                 
 dense_1 (Dense)             (None, 30)                930       
                                                                 
 dense_2 (Dense)             (None, 30)                930       
                                                                 
 dense_3 (Dense)             (None, 1)                 31        
                                                                 
=================================================================
Total params: 2,701
Trainable params: 2,701
=======
dense (Dense)                (None, 100)               3200      
_________________________________________________________________
dense_1 (Dense)              (None, 100)               10100     
_________________________________________________________________
dense_2 (Dense)              (None, 100)               10100     
_________________________________________________________________
dense_3 (Dense)              (None, 100)               10100     
_________________________________________________________________
dense_4 (Dense)              (None, 100)               10100     
_________________________________________________________________
dense_5 (Dense)              (None, 100)               10100     
_________________________________________________________________
dense_6 (Dense)              (None, 100)               10100     
_________________________________________________________________
dense_7 (Dense)              (None, 100)               10100     
_________________________________________________________________
dense_8 (Dense)              (None, 100)               10100     
_________________________________________________________________
dense_9 (Dense)              (None, 1)                 101       
=================================================================
Total params: 84,101
Trainable params: 84,101
Non-trainable params: 0
_________________________________________________________________
Epoch 1/10000
12/12 - 0s - loss: 157.3312 - val_loss: 179.3707

Epoch 00001: val_loss improved from inf to 179.37071, saving model to ./results//trial_1/ckpt_1
Epoch 2/10000
12/12 - 0s - loss: 153.7729 - val_loss: 165.3873
…
Epoch 00444: val_loss did not improve from 53.40628
Epoch 445/10000
12/12 - 0s - loss: 16.6785 - val_loss: 93.5718

Epoch 00445: val_loss did not improve from 53.40628
Epoch 446/10000
12/12 - 0s - loss: 18.2337 - val_loss: 110.8081

Epoch 00446: val_loss did not improve from 53.40628
Epoch 00446: early stopping
*************************** Fold #: 2 ***************************
Model: "sequential_1"
_________________________________________________________________
Layer (type)                 Output Shape              Param #   
=================================================================
dense_10 (Dense)             (None, 100)               3200      
_________________________________________________________________
dense_11 (Dense)             (None, 100)               10100     
_________________________________________________________________
dense_12 (Dense)             (None, 100)               10100     
_________________________________________________________________
dense_13 (Dense)             (None, 100)               10100     
_________________________________________________________________
dense_14 (Dense)             (None, 100)               10100     
_________________________________________________________________
dense_15 (Dense)             (None, 100)               10100     
_________________________________________________________________
dense_16 (Dense)             (None, 100)               10100     
_________________________________________________________________
dense_17 (Dense)             (None, 100)               10100     
_________________________________________________________________
dense_18 (Dense)             (None, 100)               10100     
_________________________________________________________________
dense_19 (Dense)             (None, 1)                 101       
=================================================================
Total params: 84,101
Trainable params: 84,101
Non-trainable params: 0
_________________________________________________________________
Epoch 1/10000
12/12 - 0s - loss: 148.6535 - val_loss: 256.5507

Epoch 00001: val_loss improved from inf to 256.55069, saving model to ./results//trial_1/ckpt_2
Epoch 2/10000
12/12 - 0s - loss: 142.8092 - val_loss: 240.4027
…
