*************************** Fold #: 1 ***************************
Model: "sequential"
_________________________________________________________________
 Layer (type)                Output Shape              Param #   
=================================================================
 dense (Dense)               (None, 30)                240       
                                                                 
 dense_1 (Dense)             (None, 30)                930       
                                                                 
 dense_2 (Dense)             (None, 30)                930       
                                                                 
 dense_3 (Dense)             (None, 30)                930       
                                                                 
 dense_4 (Dense)             (None, 30)                930       
                                                                 
 dense_5 (Dense)             (None, 30)                930       
                                                                 
 dense_6 (Dense)             (None, 30)                930       
                                                                 
 dense_7 (Dense)             (None, 30)                930       
                                                                 
 dense_8 (Dense)             (None, 30)                930       
                                                                 
 dense_9 (Dense)             (None, 30)                930       
                                                                 
 dense_10 (Dense)            (None, 1)                 31        
                                                                 
=================================================================
Total params: 8,641
Trainable params: 8,641
Non-trainable params: 0
_________________________________________________________________
Epoch 1/10000

Epoch 00001: val_loss improved from inf to 216.53423, saving model to ./results/trial_1/ckpt_1
8/8 - 3s - loss: 235.2799 - val_loss: 216.5342 - 3s/epoch - 315ms/step
…
