*************************** Fold #: 1 ***************************
Model: "sequential"
_________________________________________________________________
Layer (type)                 Output Shape              Param #   
=================================================================
dense (Dense)                (None, 100)               3200      
_________________________________________________________________
dense_1 (Dense)              (None, 100)               10100     
_________________________________________________________________
dense_2 (Dense)              (None, 100)               10100     
_________________________________________________________________
dense_3 (Dense)              (None, 100)               10100     
_________________________________________________________________
dense_4 (Dense)              (None, 100)               10100     
_________________________________________________________________
dense_5 (Dense)              (None, 100)               10100     
_________________________________________________________________
dense_6 (Dense)              (None, 100)               10100     
_________________________________________________________________
dense_7 (Dense)              (None, 100)               10100     
_________________________________________________________________
dense_8 (Dense)              (None, 100)               10100     
_________________________________________________________________
dense_9 (Dense)              (None, 1)                 101       
=================================================================
Total params: 84,101
Trainable params: 84,101
Non-trainable params: 0
_________________________________________________________________
Epoch 1/10000
12/12 - 0s - loss: 157.3312 - val_loss: 179.3707

Epoch 00001: val_loss improved from inf to 179.37071, saving model to ./results//trial_1/ckpt_1
Epoch 2/10000
12/12 - 0s - loss: 153.7729 - val_loss: 165.3873
…
