Before SMOTE
 Box Stats: [ 2.  3.  5.  9. 18.]
 Number of samples: 4000

After SMOTE
 Box Stats: [ 2.   5.  14.  31.5 71. ]
 Number of samples: 5872

*************************** Fold #: 1 ***************************
Model: "sequential"
_________________________________________________________________
Layer (type)                 Output Shape              Param #   
=================================================================
dense (Dense)                (None, 30)                960       
_________________________________________________________________
dense_1 (Dense)              (None, 30)                930       
_________________________________________________________________
dense_2 (Dense)              (None, 30)                930       
_________________________________________________________________
dense_3 (Dense)              (None, 30)                930       
_________________________________________________________________
dense_4 (Dense)              (None, 30)                930       
_________________________________________________________________
dense_5 (Dense)              (None, 30)                930       
_________________________________________________________________
dense_6 (Dense)              (None, 30)                930       
_________________________________________________________________
dense_7 (Dense)              (None, 30)                930       
_________________________________________________________________
dense_8 (Dense)              (None, 30)                930       
_________________________________________________________________
dense_9 (Dense)              (None, 30)                930       
_________________________________________________________________
dense_10 (Dense)             (None, 1)                 31        
=================================================================
Total params: 9,361
Trainable params: 9,361
Non-trainable params: 0
_________________________________________________________________
Epoch 1/10000
6/6 - 0s - loss: 1793.0928 - val_loss: 1668.3097

Epoch 00001: val_loss improved from inf to 1668.30969, saving model to ./results//smote_6/ckpt_1
Epoch 2/10000
6/6 - 0s - loss: 1792.6252 - val_loss: 1667.8146
…
