*************************** Fold #: 1 ***************************
Model: "sequential"
_________________________________________________________________
 Layer (type)                Output Shape              Param #   
=================================================================
 dense (Dense)               (None, 30)                960       
                                                                 
 dense_1 (Dense)             (None, 30)                930       
                                                                 
 dense_2 (Dense)             (None, 30)                930       
                                                                 
 dense_3 (Dense)             (None, 30)                930       
                                                                 
 dense_4 (Dense)             (None, 30)                930       
                                                                 
 dense_5 (Dense)             (None, 30)                930       
                                                                 
 dense_6 (Dense)             (None, 30)                930       
                                                                 
 dense_7 (Dense)             (None, 30)                930       
                                                                 
 dense_8 (Dense)             (None, 30)                930       
                                                                 
 dense_9 (Dense)             (None, 30)                930       
                                                                 
 dense_10 (Dense)            (None, 1)                 31        
                                                                 
=================================================================
Total params: 9,361
Trainable params: 9,361
Non-trainable params: 0
_________________________________________________________________
Epoch 1/10000

Epoch 00001: val_loss improved from inf to 25.88079, saving model to ./results/dataset/trial_6/ckpt_1
4/4 - 2s - loss: 31.9224 - val_loss: 25.8808 - 2s/epoch - 528ms/step
…
