*************************** Fold #: 1 ***************************
Model: "sequential_20"
_________________________________________________________________
Layer (type)                 Output Shape              Param #   
=================================================================
dense_220 (Dense)            (None, 30)                150       
_________________________________________________________________
dense_221 (Dense)            (None, 30)                930       
_________________________________________________________________
dense_222 (Dense)            (None, 30)                930       
_________________________________________________________________
dense_223 (Dense)            (None, 30)                930       
_________________________________________________________________
dense_224 (Dense)            (None, 30)                930       
_________________________________________________________________
dense_225 (Dense)            (None, 30)                930       
_________________________________________________________________
dense_226 (Dense)            (None, 30)                930       
_________________________________________________________________
dense_227 (Dense)            (None, 30)                930       
_________________________________________________________________
dense_228 (Dense)            (None, 30)                930       
_________________________________________________________________
dense_229 (Dense)            (None, 30)                930       
_________________________________________________________________
dense_230 (Dense)            (None, 1)                 31        
=================================================================
Total params: 8,551
Trainable params: 8,551
Non-trainable params: 0
_________________________________________________________________
Epoch 1/10000
4/4 - 0s - loss: 27.9506 - val_loss: 46.9575

Epoch 00001: val_loss improved from inf to 46.95747, saving model to ./results/kde_dataset/trial_3/ckpt_1
Epoch 2/10000
4/4 - 0s - loss: 27.9121 - val_loss: 46.9072
…
