Before SMOTE
 Box Stats: [0.723  0.9835 1.674  3.2925 6.75  ]
 Number of samples: 4000

After SMOTE
 Box Stats: [ 0.723       1.573       4.57361786  7.07156309 15.28878716]
 Number of samples: 5932

*************************** Fold #: 1 ***************************
Model: "sequential"
_________________________________________________________________
Layer (type)                 Output Shape              Param #   
=================================================================
dense (Dense)                (None, 30)                960       
_________________________________________________________________
dense_1 (Dense)              (None, 30)                930       
_________________________________________________________________
dense_2 (Dense)              (None, 30)                930       
_________________________________________________________________
dense_3 (Dense)              (None, 30)                930       
_________________________________________________________________
dense_4 (Dense)              (None, 30)                930       
_________________________________________________________________
dense_5 (Dense)              (None, 30)                930       
_________________________________________________________________
dense_6 (Dense)              (None, 30)                930       
_________________________________________________________________
dense_7 (Dense)              (None, 30)                930       
_________________________________________________________________
dense_8 (Dense)              (None, 30)                930       
_________________________________________________________________
dense_9 (Dense)              (None, 30)                930       
_________________________________________________________________
dense_10 (Dense)             (None, 1)                 31        
=================================================================
Total params: 9,361
Trainable params: 9,361
Non-trainable params: 0
_________________________________________________________________
Epoch 1/10000
6/6 - 0s - loss: 86.8284 - val_loss: 72.6164

Epoch 00001: val_loss improved from inf to 72.61644, saving model to ./results/kde_dataset/smote_6/ckpt_1
Epoch 2/10000
6/6 - 0s - loss: 86.6728 - val_loss: 72.4537
…
