Before SMOTE
 Box Stats: [0.723  0.9835 1.674  3.2925 6.75  ]
 Number of samples: 4000

After SMOTE
 Box Stats: [ 0.723       1.546       4.53303445  7.24166496 15.78417669]
 Number of samples: 5932

*************************** Fold #: 1 ***************************
Model: "sequential"
_________________________________________________________________
Layer (type)                 Output Shape              Param #   
=================================================================
dense (Dense)                (None, 30)                240       
_________________________________________________________________
dense_1 (Dense)              (None, 30)                930       
_________________________________________________________________
dense_2 (Dense)              (None, 30)                930       
_________________________________________________________________
dense_3 (Dense)              (None, 30)                930       
_________________________________________________________________
dense_4 (Dense)              (None, 30)                930       
_________________________________________________________________
dense_5 (Dense)              (None, 30)                930       
_________________________________________________________________
dense_6 (Dense)              (None, 30)                930       
_________________________________________________________________
dense_7 (Dense)              (None, 30)                930       
_________________________________________________________________
dense_8 (Dense)              (None, 30)                930       
_________________________________________________________________
dense_9 (Dense)              (None, 30)                930       
_________________________________________________________________
dense_10 (Dense)             (None, 1)                 31        
=================================================================
Total params: 8,641
Trainable params: 8,641
Non-trainable params: 0
_________________________________________________________________
Epoch 1/10000
6/6 - 0s - loss: 84.0624 - val_loss: 107.8693

Epoch 00001: val_loss improved from inf to 107.86929, saving model to ./results/kde_dataset/smote_1/ckpt_1
Epoch 2/10000
6/6 - 0s - loss: 83.9267 - val_loss: 107.7083
…
