*************************** Fold #: 1 ***************************
Model: "sequential_40"
_________________________________________________________________
 Layer (type)                Output Shape              Param #   
=================================================================
 dense_440 (Dense)           (None, 30)                210       
                                                                 
 dense_441 (Dense)           (None, 30)                930       
                                                                 
 dense_442 (Dense)           (None, 30)                930       
                                                                 
 dense_443 (Dense)           (None, 30)                930       
                                                                 
 dense_444 (Dense)           (None, 30)                930       
                                                                 
 dense_445 (Dense)           (None, 30)                930       
                                                                 
 dense_446 (Dense)           (None, 30)                930       
                                                                 
 dense_447 (Dense)           (None, 30)                930       
                                                                 
 dense_448 (Dense)           (None, 30)                930       
                                                                 
 dense_449 (Dense)           (None, 30)                930       
                                                                 
 dense_450 (Dense)           (None, 1)                 31        
                                                                 
=================================================================
Total params: 8,611
Trainable params: 8,611
Non-trainable params: 0
_________________________________________________________________
Epoch 1/10000

Epoch 00001: val_loss improved from inf to 133.71182, saving model to ./results/trial_5/ckpt_1
12/12 - 2s - loss: 155.0012 - val_loss: 133.7118 - 2s/epoch - 178ms/step
…
