*************************** Fold #: 1 ***************************
Model: "sequential_40"
_________________________________________________________________
Layer (type)                 Output Shape              Param #   
=================================================================
dense_440 (Dense)            (None, 30)                210       
_________________________________________________________________
dense_441 (Dense)            (None, 30)                930       
_________________________________________________________________
dense_442 (Dense)            (None, 30)                930       
_________________________________________________________________
dense_443 (Dense)            (None, 30)                930       
_________________________________________________________________
dense_444 (Dense)            (None, 30)                930       
_________________________________________________________________
dense_445 (Dense)            (None, 30)                930       
_________________________________________________________________
dense_446 (Dense)            (None, 30)                930       
_________________________________________________________________
dense_447 (Dense)            (None, 30)                930       
_________________________________________________________________
dense_448 (Dense)            (None, 30)                930       
_________________________________________________________________
dense_449 (Dense)            (None, 30)                930       
_________________________________________________________________
dense_450 (Dense)            (None, 1)                 31        
=================================================================
Total params: 8,611
Trainable params: 8,611
Non-trainable params: 0
_________________________________________________________________
Epoch 1/10000
4/4 - 0s - loss: 543.7064 - val_loss: 398.7924

Epoch 00001: val_loss improved from inf to 398.79242, saving model to ./results//trial_5/ckpt_1
Epoch 2/10000
4/4 - 0s - loss: 543.5807 - val_loss: 398.6532
…
