*************************** Fold #: 1 ***************************
Model: "sequential"
_________________________________________________________________
Layer (type)                 Output Shape              Param #   
=================================================================
dense (Dense)                (None, 30)                240       
_________________________________________________________________
dense_1 (Dense)              (None, 30)                930       
_________________________________________________________________
dense_2 (Dense)              (None, 30)                930       
_________________________________________________________________
dense_3 (Dense)              (None, 30)                930       
_________________________________________________________________
dense_4 (Dense)              (None, 30)                930       
_________________________________________________________________
dense_5 (Dense)              (None, 30)                930       
_________________________________________________________________
dense_6 (Dense)              (None, 30)                930       
_________________________________________________________________
dense_7 (Dense)              (None, 30)                930       
_________________________________________________________________
dense_8 (Dense)              (None, 30)                930       
_________________________________________________________________
dense_9 (Dense)              (None, 30)                930       
_________________________________________________________________
dense_10 (Dense)             (None, 1)                 31        
=================================================================
Total params: 8,641
Trainable params: 8,641
Non-trainable params: 0
_________________________________________________________________
Epoch 1/10000
4/4 - 0s - loss: 32.5820 - val_loss: 19.9379

Epoch 00001: val_loss improved from inf to 19.93787, saving model to ./results/dataset/trial_1/ckpt_1
Epoch 2/10000
4/4 - 0s - loss: 32.5477 - val_loss: 19.9023
…
