Before SMOTE
 Box Stats: [0.723  0.9835 1.674  3.2925 6.75  ]
 Number of samples: 4000

After SMOTE
 Box Stats: [ 0.723       1.546       4.57286824  7.0765     15.34276608]
 Number of samples: 5932

*************************** Fold #: 1 ***************************
Model: "sequential"
_________________________________________________________________
Layer (type)                 Output Shape              Param #   
=================================================================
dense (Dense)                (None, 30)                210       
_________________________________________________________________
dense_1 (Dense)              (None, 30)                930       
_________________________________________________________________
dense_2 (Dense)              (None, 30)                930       
_________________________________________________________________
dense_3 (Dense)              (None, 30)                930       
_________________________________________________________________
dense_4 (Dense)              (None, 30)                930       
_________________________________________________________________
dense_5 (Dense)              (None, 30)                930       
_________________________________________________________________
dense_6 (Dense)              (None, 30)                930       
_________________________________________________________________
dense_7 (Dense)              (None, 30)                930       
_________________________________________________________________
dense_8 (Dense)              (None, 30)                930       
_________________________________________________________________
dense_9 (Dense)              (None, 30)                930       
_________________________________________________________________
dense_10 (Dense)             (None, 1)                 31        
=================================================================
Total params: 8,611
Trainable params: 8,611
Non-trainable params: 0
_________________________________________________________________
Epoch 1/10000
6/6 - 0s - loss: 83.9589 - val_loss: 89.0161

Epoch 00001: val_loss improved from inf to 89.01606, saving model to ./results/kde_dataset/smote_5/ckpt_1
Epoch 2/10000
6/6 - 0s - loss: 83.8373 - val_loss: 88.8826
…
