*************************** Fold #: 1 ***************************
Model: "sequential_10"
_________________________________________________________________
 Layer (type)                Output Shape              Param #   
=================================================================
 dense_110 (Dense)           (None, 30)                270       
                                                                 
 dense_111 (Dense)           (None, 30)                930       
                                                                 
 dense_112 (Dense)           (None, 30)                930       
                                                                 
 dense_113 (Dense)           (None, 30)                930       
                                                                 
 dense_114 (Dense)           (None, 30)                930       
                                                                 
 dense_115 (Dense)           (None, 30)                930       
                                                                 
 dense_116 (Dense)           (None, 30)                930       
                                                                 
 dense_117 (Dense)           (None, 30)                930       
                                                                 
 dense_118 (Dense)           (None, 30)                930       
                                                                 
 dense_119 (Dense)           (None, 30)                930       
                                                                 
 dense_120 (Dense)           (None, 1)                 31        
                                                                 
=================================================================
Total params: 8,671
Trainable params: 8,671
Non-trainable params: 0
_________________________________________________________________
Epoch 1/10000

Epoch 00001: val_loss improved from inf to 172.16469, saving model to ./results/trial_2/ckpt_1
8/8 - 2s - loss: 240.2039 - val_loss: 172.1647 - 2s/epoch - 235ms/step
…
