Before SMOTE
 Box Stats: [0. 0. 1. 3. 7.]
 Number of samples: 13584

After SMOTE
 Box Stats: [ 0.          1.          6.         10.47619048 24.48979592]
 Number of samples: 18334

*************************** Fold #: 1 ***************************
Model: "sequential"
_________________________________________________________________
Layer (type)                 Output Shape              Param #   
=================================================================
dense (Dense)                (None, 100)               3200      
_________________________________________________________________
dense_1 (Dense)              (None, 100)               10100     
_________________________________________________________________
dense_2 (Dense)              (None, 100)               10100     
_________________________________________________________________
dense_3 (Dense)              (None, 100)               10100     
_________________________________________________________________
dense_4 (Dense)              (None, 100)               10100     
_________________________________________________________________
dense_5 (Dense)              (None, 100)               10100     
_________________________________________________________________
dense_6 (Dense)              (None, 100)               10100     
_________________________________________________________________
dense_7 (Dense)              (None, 100)               10100     
_________________________________________________________________
dense_8 (Dense)              (None, 100)               10100     
_________________________________________________________________
dense_9 (Dense)              (None, 100)               10100     
_________________________________________________________________
dense_10 (Dense)             (None, 1)                 101       
=================================================================
Total params: 94,201
Trainable params: 94,201
Non-trainable params: 0
_________________________________________________________________
Epoch 1/10000
17/17 - 1s - loss: 506.1262 - val_loss: 617.8378

Epoch 00001: val_loss improved from inf to 617.83783, saving model to ./results//trial_2/ckpt_1
Epoch 2/10000
17/17 - 0s - loss: 435.7636 - val_loss: 496.7656
…
