Before SMOTE
 Box Stats: [0. 0. 1. 3. 7.]
 Number of samples: 13584

After SMOTE
 Box Stats: [ 0.          1.          6.          9.47368421 22.        ]
 Number of samples: 18218

*************************** Fold #: 1 ***************************
Model: "sequential_20"
_________________________________________________________________
 Layer (type)                Output Shape              Param #   
=================================================================
 dense_220 (Dense)           (None, 30)                960       
                                                                 
 dense_221 (Dense)           (None, 30)                930       
                                                                 
 dense_222 (Dense)           (None, 30)                930       
                                                                 
 dense_223 (Dense)           (None, 30)                930       
                                                                 
 dense_224 (Dense)           (None, 30)                930       
                                                                 
 dense_225 (Dense)           (None, 30)                930       
                                                                 
 dense_226 (Dense)           (None, 30)                930       
                                                                 
 dense_227 (Dense)           (None, 30)                930       
                                                                 
 dense_228 (Dense)           (None, 30)                930       
                                                                 
 dense_229 (Dense)           (None, 30)                930       
                                                                 
 dense_230 (Dense)           (None, 1)                 31        
                                                                 
=================================================================
Total params: 9,361
Trainable params: 9,361
Non-trainable params: 0
_________________________________________________________________
Epoch 1/10000

Epoch 00001: val_loss improved from inf to 441.95486, saving model to ./results/trial_3/ckpt_1
17/17 - 2s - loss: 500.5602 - val_loss: 441.9549 - 2s/epoch - 126ms/step
…
