*************************** Fold #: 1 ***************************
Model: "sequential_20"
_________________________________________________________________
 Layer (type)                Output Shape              Param #   
=================================================================
 dense_220 (Dense)           (None, 30)                150       
                                                                 
 dense_221 (Dense)           (None, 30)                930       
                                                                 
 dense_222 (Dense)           (None, 30)                930       
                                                                 
 dense_223 (Dense)           (None, 30)                930       
                                                                 
 dense_224 (Dense)           (None, 30)                930       
                                                                 
 dense_225 (Dense)           (None, 30)                930       
                                                                 
 dense_226 (Dense)           (None, 30)                930       
                                                                 
 dense_227 (Dense)           (None, 30)                930       
                                                                 
 dense_228 (Dense)           (None, 30)                930       
                                                                 
 dense_229 (Dense)           (None, 30)                930       
                                                                 
 dense_230 (Dense)           (None, 1)                 31        
                                                                 
=================================================================
Total params: 8,551
Trainable params: 8,551
Non-trainable params: 0
_________________________________________________________________
Epoch 1/10000

Epoch 00001: val_loss improved from inf to 83.26411, saving model to ./results/trial_3/ckpt_1
12/12 - 2s - loss: 160.5965 - val_loss: 83.2641 - 2s/epoch - 155ms/step
…
