*************************** Fold #: 1 ***************************
Model: "sequential_20"
_________________________________________________________________
Layer (type)                 Output Shape              Param #   
=================================================================
dense_220 (Dense)            (None, 30)                150       
_________________________________________________________________
dense_221 (Dense)            (None, 30)                930       
_________________________________________________________________
dense_222 (Dense)            (None, 30)                930       
_________________________________________________________________
dense_223 (Dense)            (None, 30)                930       
_________________________________________________________________
dense_224 (Dense)            (None, 30)                930       
_________________________________________________________________
dense_225 (Dense)            (None, 30)                930       
_________________________________________________________________
dense_226 (Dense)            (None, 30)                930       
_________________________________________________________________
dense_227 (Dense)            (None, 30)                930       
_________________________________________________________________
dense_228 (Dense)            (None, 30)                930       
_________________________________________________________________
dense_229 (Dense)            (None, 30)                930       
_________________________________________________________________
dense_230 (Dense)            (None, 1)                 31        
=================================================================
Total params: 8,551
Trainable params: 8,551
Non-trainable params: 0
_________________________________________________________________
Epoch 1/10000
4/4 - 0s - loss: 501.4979 - val_loss: 778.5616

Epoch 00001: val_loss improved from inf to 778.56158, saving model to ./results//trial_3/ckpt_1
Epoch 2/10000
4/4 - 0s - loss: 501.3457 - val_loss: 778.3571
…
