Before SMOTE
 Box Stats: [ 2.  3.  5.  9. 18.]
 Number of samples: 4000

After SMOTE
 Box Stats: [ 2.          5.         18.         32.49230769 73.5       ]
 Number of samples: 5872

*************************** Fold #: 1 ***************************
Model: "sequential_10"
_________________________________________________________________
Layer (type)                 Output Shape              Param #   
=================================================================
dense_110 (Dense)            (None, 30)                270       
_________________________________________________________________
dense_111 (Dense)            (None, 30)                930       
_________________________________________________________________
dense_112 (Dense)            (None, 30)                930       
_________________________________________________________________
dense_113 (Dense)            (None, 30)                930       
_________________________________________________________________
dense_114 (Dense)            (None, 30)                930       
_________________________________________________________________
dense_115 (Dense)            (None, 30)                930       
_________________________________________________________________
dense_116 (Dense)            (None, 30)                930       
_________________________________________________________________
dense_117 (Dense)            (None, 30)                930       
_________________________________________________________________
dense_118 (Dense)            (None, 30)                930       
_________________________________________________________________
dense_119 (Dense)            (None, 30)                930       
_________________________________________________________________
dense_120 (Dense)            (None, 1)                 31        
=================================================================
Total params: 8,671
Trainable params: 8,671
Non-trainable params: 0
_________________________________________________________________
Epoch 1/10000
6/6 - 0s - loss: 1846.6138 - val_loss: 2364.5896

Epoch 00001: val_loss improved from inf to 2364.58960, saving model to ./results//smote_2/ckpt_1
Epoch 2/10000
6/6 - 0s - loss: 1846.0516 - val_loss: 2363.9282
…
