Before SMOTE
 Box Stats: [0. 1. 1. 3. 6.]
 Number of samples: 4000

After SMOTE
 Box Stats: [ 0.  1.  5.  9. 21.]
 Number of samples: 5800

*************************** Fold #: 1 ***************************
Model: "sequential_30"
_________________________________________________________________
Layer (type)                 Output Shape              Param #   
=================================================================
dense_330 (Dense)            (None, 30)                210       
_________________________________________________________________
dense_331 (Dense)            (None, 30)                930       
_________________________________________________________________
dense_332 (Dense)            (None, 30)                930       
_________________________________________________________________
dense_333 (Dense)            (None, 30)                930       
_________________________________________________________________
dense_334 (Dense)            (None, 30)                930       
_________________________________________________________________
dense_335 (Dense)            (None, 30)                930       
_________________________________________________________________
dense_336 (Dense)            (None, 30)                930       
_________________________________________________________________
dense_337 (Dense)            (None, 30)                930       
_________________________________________________________________
dense_338 (Dense)            (None, 30)                930       
_________________________________________________________________
dense_339 (Dense)            (None, 30)                930       
_________________________________________________________________
dense_340 (Dense)            (None, 1)                 31        
=================================================================
Total params: 8,611
Trainable params: 8,611
Non-trainable params: 0
_________________________________________________________________
Epoch 1/10000
6/6 - 0s - loss: 117.6026 - val_loss: 90.1582

Epoch 00001: val_loss improved from inf to 90.15816, saving model to ./results//smote_4/ckpt_1
Epoch 2/10000
6/6 - 0s - loss: 117.4453 - val_loss: 89.9925
…
