Before SMOTE
 Box Stats: [0. 1. 1. 3. 6.]
 Number of samples: 4000

After SMOTE
 Box Stats: [ 0.  1.  5.  9. 21.]
 Number of samples: 5800

*************************** Fold #: 1 ***************************
Model: "sequential_10"
_________________________________________________________________
Layer (type)                 Output Shape              Param #   
=================================================================
dense_110 (Dense)            (None, 30)                270       
_________________________________________________________________
dense_111 (Dense)            (None, 30)                930       
_________________________________________________________________
dense_112 (Dense)            (None, 30)                930       
_________________________________________________________________
dense_113 (Dense)            (None, 30)                930       
_________________________________________________________________
dense_114 (Dense)            (None, 30)                930       
_________________________________________________________________
dense_115 (Dense)            (None, 30)                930       
_________________________________________________________________
dense_116 (Dense)            (None, 30)                930       
_________________________________________________________________
dense_117 (Dense)            (None, 30)                930       
_________________________________________________________________
dense_118 (Dense)            (None, 30)                930       
_________________________________________________________________
dense_119 (Dense)            (None, 30)                930       
_________________________________________________________________
dense_120 (Dense)            (None, 1)                 31        
=================================================================
Total params: 8,671
Trainable params: 8,671
Non-trainable params: 0
_________________________________________________________________
Epoch 1/10000
6/6 - 0s - loss: 110.8651 - val_loss: 111.5914

Epoch 00001: val_loss improved from inf to 111.59142, saving model to ./results//smote_2/ckpt_1
Epoch 2/10000
6/6 - 0s - loss: 110.7400 - val_loss: 111.4465
…
